saved_models/malgan_z=10_d-gen=[256,_256]_d-disc=[256,_256]_bs=32_bb=randomforest_g=leakyrelu_final.pth (torch, 940898 bytes, 11 tensors)

_gen._layers.FF00.0.weight f4 [256, 138]
00000000: 6890 af3c 3902 43bd 40de b33d 9e30 55bd
00000010: 452d 4ebc b08e 663d 7afd 3bbb 841e 7bbd
00000020: 8f91 5c3d 989b 293d cd84 abbc 9fac f9bb
00000030: 99a0 0e3d ca84 61bd 8d13 a1bc ecc0 d8bc
00000040: fe2b 07bd 2071 0e3c c668 a63c e2e9 bbbb
00000050: ab27 2fbd 76e8 e53c 01a4 58bb b392 eb3c
00000060: b8f8 733d c7b0 7a3d a2bb 8b3d 0da6 98bd
00000070: 1fae 6fbc f674 cb3c 3dd1 8bbd 749c 8cbd
00000080: 780b d83c 33b0 05bd 7d17 ec3d 88bb 8dbd
00000090: 489b a83c c057 97bc 3fa0 ab3d f494 3dbd
000000a0: 6103 c53c 6096 a1bd 40ee 9a3d db40 6e3d
000000b0: fb4c 6fbd 0475 a03d d4ef e43b 1217 55bd
000000c0: 59c1 313d b1cf 2a3b 0276 373d ea8e 86bd
000000d0: 82e4 80bd 2916 e03d a1be 63bd 4d25 7a3d
000000e0: 8662 6f3d dec9 d13b 4c07 90bd 5e3d cb3d
000000f0: bb89 573d 97d1 043d 1763 ebbc 6698 76bd
00000100: 8cb2 3a3d e58b 3c3d 4d4d 47bc 2fc2 a2bd
00000110: fb1d 3b3d 225c 243b ef6a 9cbd fc34 09bd
00000120: f721 583d 84b6 2bbd ab07 753d 54cf af3d
00000130: a6ea 8fbd 619b 493d 0dad 86bb b332 213d
00000140: 7202 e5bb ef22 38bd 9178 cc3b 740d 033d
00000150: 7408 b43d 2751 aab9 bf3e 27bd a6a5 79bd
00000160: d75b e9bc f869 5c3d 9291 8dbd b2c9 1e3d
00000170: b2e7 43bb 9dd0 d8ba ce42 63bd a4a7 3d3d
00000180: 005d af3d d9a2 8a3d fb11 63bb 3c78 0f3c
00000190: 5ea8 7a3d 60fe 003d fd8c 863d 68b4 87bc
000001a0: 0b1d 46bd d2a3 473d 1834 173d 6486 89bd
000001b0: 3fe0 20bc 0cd4 68bd 8830 723d 2561 793c
000001c0: 0fcb 0abd 6ea8 a33d 0068 c13d b7ec 713d
000001d0: 06b0 dbbc 764b b9bb 9d06 bc3d 4db4 14bd
000001e0: e825 213d aca6 783d 74d2 5ebd 5719 c2bd
000001f0: 9f1c d3bc a7ed d03c 00f8 853b 8acc 243d
00000200: e9e9 ae3c 38d6 093b 2a2e ca3b 094e fe3b
00000210: a7d6 803d a1e4 363d 39fc 83bd f09c 8a3d
00000220: 459f f9ba 0633 be3c a070 59bd bc98 4bba
00000230: f803 59bd e25d c33b 3f58 433d 0293 233d
00000240: 57a2 833d 4f80 3cbc 9398 b63d 7395 e53c
00000250: b615 933c a5d5 a03d b280 5a3d cdf1 b33c
00000260: b548 fcbc 59c9 3f3d e087 9f3d f7a6 933c
00000270: a93a 55bd 6d75 783d 5f9d 9f3d b57e 4fbc
00000280: ff1b f13c 7469 1cbd e3b3 a1bc cc36 55bc
00000290: 95dd 233d 909d 9d3d 1ce0 b73d c4fa c43d
000002a0: 7017 c43d 97d7 44bb 9b7c d93c f5ea 443d
000002b0: a39a c63d 4bd2 ddbc cd45 3bbc 71be a93d
000002c0: cfbf 8c3b 7713 e03b 0729 03bc caed 3b3d
000002d0: d361 623d 7664 293c 6ec8 aa3c a1b8 9f3d
000002e0: 5339 d23d b933 843d 9a97 7b3b 13e1 853d
000002f0: b199 5dbd 72a4 813b 5930 81bc 1529 88ba
00000300: 01dd f23c 6655 853d 6ab6 88ba 30a4 3a3d
00000310: e185 d63d 05ee c43d d03f 493d b54b 4c3d
00000320: 8b45 2e3d 9bed de3d 54c1 993d 2505 47bd
00000330: 628f b83d 2ebd b63d dce1 46bd 1f0d 213d
00000340: 0182 263d 872e 5bbd 070a 8d3d 38e7 d03d
00000350: 9336 a83d f21d 3dbd f0c7 04bd 612c 423d
00000360: 2472 c63d 20fd 963d fbfb 073d f91f 09bd
00000370: 5ef0 833b ef2d c6bb f497 84bc ee59 5e3c
00000380: ac4e 193d eba6 b63d 57dd 583d 7aea 6a3d
00000390: c4aa 913d 9023 4c3d 7c5b e6ba 9447 bf3d
000003a0: 624a 0a3c 4ec2 26bd 4a12 22bd 141d 3dbd
000003b0: a812 0ebd cf78 ee3d 0d6b 943d e2eb 463d
000003c0: 594a 1ebd 2f80 da3d fc83 0fbd 8b7f 73bc
000003d0: ceef 913d d71c b7bc 39d3 0a3d b633 413d
000003e0: dcec c43d ba96 0e3b edcf 803c 9ba8 013d
000003f0: 4ae1 e63c 734e ab3d 74b3 353d a908 1fbd
0.021431163 -0.04760954 0.08782625 -0.052048318 -0.012584035 0.05628842 -0.002868502 -0.0613084
0.053849753 0.04140815 -0.020937348 -0.007619455 0.034821127 -0.05505828 -0.019662643 -0.02645918
-0.03300094 0.008693963 0.020313632 -0.005734668 -0.04276244 0.028064948 -0.0033056738 0.028756475
0.05956337 0.061203744 0.068228975 -0.07453547 -0.014628916 0.024836045 -0.068270184 -0.068657786
0.026372656 -0.03263874 0.115279175 -0.06920534 0.020581856 -0.01847446 0.08380174 -0.04628463
0.024049463 -0.0789001 0.07564974 0.05816732 -0.058423024 0.07834819 0.0069865976 -0.052023955
0.04339728 0.0026063735 0.044790275 -0.065702274 -0.062935844 0.10941727 -0.05560172 0.06107073
0.05844357 0.0064022383 -0.07032642 0.09923814 0.052621584 0.032426443 -0.028733773 -0.060203932
0.04558043 0.04603185 -0.012164426 -0.07947194 0.04568289 0.002507933 -0.076375835 -0.033497795
0.052766766 -0.041922107 0.059821766 0.085844666 -0.070271775 0.049220446 -0.0041099847 0.03935499
-0.006988817 -0.04495519 0.0062399586 0.03199525 0.08790675 -0.0003248539 -0.040831324 -0.06094899
-0.028486175 0.053811997 -0.06912531 0.03876657 -0.002989274 -0.0016541664 -0.05548363 0.046302453
0.0856266 0.06769342 -0.0034648168 0.008756693 0.061195724 0.03149259 0.0656986 -0.016565517
-0.04836754 0.048740216 0.036914915 -0.06715086 -0.009819089 -0.05684285 0.059128314 0.015220915
-0.033885058 0.0799111 0.094436646 0.05906364 -0.026817333 -0.0056547476 0.09180949 -0.03630476
0.03934279 0.060705826 -0.054399922 -0.094774894 -0.025770484 0.025503946 0.004088402 0.040234126
0.021351771 0.0021032225 0.006170054 0.0077607674 0.06290942 0.04465163 -0.06444592 0.06768215
-0.0019044658 0.02321769 -0.053085923 -0.00077665946 -0.0529823 0.0059621194 0.04769158 0.03993512
0.06427448 -0.0115052005 0.0891582 0.028025365 0.017954689 0.078532495 0.05334539 0.021965886
-0.030796388 0.04682288 0.07789588 0.018023951 -0.052057896 0.06065886 0.07793688 -0.012664487
0.029432295 -0.038186505 -0.019739097 -0.013013553 0.04000624 0.07696068 0.08978292 0.09618142
0.09574783 -0.0030035728 0.026548674 0.048075635 0.09697463 -0.027077815 -0.011430216 0.08288277
0.0042953263 0.006838258 -0.008005387 0.04588107 0.055269074 0.010338893 0.020847525 0.07798887
0.1026484 0.06455178 0.0038389922 0.0653707 -0.05410165 0.003956371 -0.015770124 -0.001038822
0.029646398 0.06510429 -0.001043034 0.045566738 0.10474754 0.09615711 0.049133122 0.049876887
0.04254679 0.108851634 0.075075775 -0.04858889 0.09011723 0.08922802 -0.04855524 0.039319154
0.040651325 -0.05351117 0.06886678 0.102003515 0.08213534 -0.046171136 -0.032417238 0.047405604
0.09689739 0.073724985 0.03319929 -0.033477757 0.0040264567 -0.006047956 -0.016185738 0.013571246
0.037428543 0.08918556 0.05294546 0.05735252 0.07112649 0.049838603 -0.0017574872 0.09339824
0.008440586 -0.040712647 -0.039568223 -0.04617031 -0.03468576 0.11644136 0.07246981 0.0485648
-0.038645122 0.1066898 -0.03503798 -0.014861952 0.07125817 -0.02235262 0.033892844 0.047168456
0.0961549 0.002175732 0.015724147 0.031654935 0.028183598 0.083645724 0.044360593 -0.03882662

_gen._layers.FF00.0.bias f4 [256]
00000000: c860 33bd 6b46 cebc 7455 c83d 746b 363d
00000010: 71d5 70bc e54d d63d e6f4 95bc f55e c73d
00000020: 74e6 4ebb 58e6 8f3d 87eb d4bc c6ba cd3d
00000030: 4517 55bd 1022 dcbc 3cbb a0bb 63e0 003e
00000040: 0083 803d 7cda 5f3d 4db9 f13d 7e5f d93d
00000050: c1bf 8f3a 25d3 1cbd 1d55 c83d 2f0f bb3c
00000060: 96a5 f83c a4ae 203d d295 4bbd 1f87 c7bc
00000070: d96d 9a3d 17a2 9c3b 1782 143a 3fad 29bb
00000080: ca7a 873d ff1a acbd 3432 e13d 473e cc3c
00000090: 6b5a 123d 3d4a 98bd 4555 9d3d 4a78 dc3c
000000a0: c645 933d 78a0 5d3d 66cf 243d c023 80bd
000000b0: 7219 433d af6d 923d 12cc 6cbd 5106 8239
000000c0: af90 4e3d 4288 78bc e037 65bc b9d3 b13d
000000d0: 3d11 5c3c 20a7 563d 2e9c e1bd afe1 90bc
000000e0: 9850 583d 5bfb 323d 1cd1 ac3d c4f7 dd3d
000000f0: b232 d13d f742 cdbc 669d 943d 0512 b2bb
00000100: 9011 dd3d fadc 943d f1d4 e8b9 f152 15bd
00000110: b5fe 543d 477b 4e3d 531a a73d 9d55 553d
00000120: 1688 a13d 4553 eb3d 8a5b 173c 399f 65bd
00000130: b4f5 b83d 3c69 d9bb d47b b13d 96e0 7f3c
00000140: 552c 103d 64a3 a13b cfb6 ccbc 71e9 86bd
00000150: 430f 9ebc ef78 64bd 272b ab3d 2f3c 6d3d
00000160: 5cab e03d e855 653d c834 b0bc 6fce e13c
00000170: a1db a33d 6257 4c3c 78b2 c03c 53e3 623d
00000180: 0f0b 383d 8402 e03d 02a5 0b3d 940e 04bd
00000190: 69cf 1c3d 0487 8e3d a3a2 6e3d 227b fdbd
000001a0: 5042 f03c 032d 983d 6819 fb3c f1c5 21bd
000001b0: 8b60 313d 9f4f c23d 1abf 67bd fafd 0f3e
000001c0: d7e7 eebc 2b92 a13d ff12 aabc 6f4c c03d
000001d0: 2a8d ae3d aec3 153d 9a41 913c 394d 84bc
000001e0: 4398 84bd 56e8 68bc 7cf7 ea3c 211f 0e3d
000001f0: 5fc7 cc3d 63c4 873c a5e3 9dbc 3666 8e3d
00000200: 92c1 bd3d 68dd d93c 28a5 4e3d fcfb 663c
00000210: 9d05 cf3d e7ff 9dbc 59f6 c43d 4181 d6bc
00000220: 64cb db3d 3fa2 e03c f5a2 0a3e c09d ba3d
00000230: e09d e13d a09a 963b a09e 8c3d 6e06 193c
00000240: cb5a a73d f517 163e f569 d53d 0d3d 8cbc
00000250: e78d 423c b6b2 b33d 7ca2 003d c8c7 033e
00000260: 7756 193e c033 aa3c 8b07 ab3d 2192 fa3d
00000270: 0333 ff3d f69a 95b9 07aa 97bd 940f 413d
00000280: 8637 bbbd 80b2 6b3d fd40 253d be51 7bbd
00000290: 8170 b23d 9524 aebc 5c05 923d 4e15 ff3d
000002a0: 4b35 283d cde0 98bd 4d8a 753d 600e a73d
000002b0: a347 093e 7b7e aa3d f4d7 1fbc 44cd c43c
000002c0: 1290 8b3d 98a5 f53d f634 13bc c235 41bd
000002d0: fea6 943c 997f 983d c63b 7abc 72d3 ab3d
000002e0: 65cb 633d 4660 403d cc52 ed3c d63d d53d
000002f0: ae56 5f3d 2f83 f4bc bd54 093e 9e37 4e3d
00000300: 96fd 4fbc ef96 c83d 5ef2 98bc 94ec 9b3d
00000310: 0f67 8bbb 72c2 a03d e077 523d da2d ff3d
00000320: 4a41 21bb 0879 e33d 46ec f3bc 2d66 903d
00000330: 4fb0 113d 707a a6bb bd6f d5bb f21f a93d
00000340: 0bd0 603d f862 163d b9b8 69bd 9296 0d3d
00000350: a803 9a3d 1357 1f3c eea4 213d 2362 ef3c
00000360: 7944 dd3d c98a 40bd 7abb 5bbd 1ca5 f03d
00000370: aee0 5fbc b9b8 af3d b0ad 843d cad3 df3c
00000380: 756a 35b9 9ca0 8c3b 6ee9 903d 6b8c 1ebb
00000390: ed83 5e3d 0655 9e3d e37b e3bc c84b cbbb
000003a0: 35e8 91bc fbc4 c4bb 0055 4b3c b2ba 6e3d
000003b0: 796a acbd 18a3 913d 1da7 92bd 240f 9b3d
000003c0: f74d 1ebd 76e7 0cbd 6f80 ae3d 7269 833d
000003d0: 3ad1 fcbc 1a55 883d fe49 ccba 0165 26bd
000003e0: 0c37 123d 32d8 833d 5078 653d 09f3 9c3d
000003f0: ceb8 db3d 25eb 89bd 2170 df3d ec6a c43c
-0.04379347 -0.025180062 0.09781924 0.04453607 -0.014699326 0.10464076 -0.018305253 0.097349085
-0.0031570466 0.070263565 -0.025991214 0.1004539 -0.052024145 -0.026871711 -0.0049051326 0.12585597
0.06274986 0.054651722 0.118029214 0.10613917 0.0010967181 -0.0382873 0.09781859 0.022834389
0.030352395 0.03922905 -0.049703427 -0.024356423 0.07540483 0.004780065 0.0005665137 -0.0025890616
0.06615217 -0.084035866 0.109959036 0.02493204 0.03573076 -0.07436035 0.076822795 0.026912827
0.071910426 0.054108113 0.040236853 -0.06256819 0.04763169 0.07149827 -0.057811804 0.00024800238
0.05043095 -0.015169205 -0.013990372 0.08682961 0.013431844 0.052405477 -0.11016117 -0.01768574
0.052811235 0.043696743 0.08438322 0.10838273 0.102147475 -0.025056345 0.07256584 -0.005434277
0.107943654 0.072687104 -0.00044409142 -0.036456052 0.05200072 0.050410535 0.08159318 0.0520836
0.078872845 0.11490492 0.009238133 -0.05606005 0.09031239 -0.0066348594 0.086661965 0.01561751
0.03519853 0.0049328078 -0.024989514 -0.06587494 -0.019294387 -0.055779394 0.0835784 0.057918724
0.10970184 0.05599013 -0.021509543 0.027564256 0.08000875 0.012472006 0.0235226 0.055392575
0.04493242 0.1093798 0.03409291 -0.032240465 0.03828374 0.06959346 0.05826057 -0.12377001
0.029328495 0.0743046 0.030651763 -0.039495412 0.04330496 0.09487843 -0.056578733 0.14061728
-0.029163284 0.078892075 -0.020761011 0.093895786 0.08523019 0.036563568 0.017731477 -0.016150104
-0.06474354 -0.014215549 0.028682463 0.034697656 0.099989645 0.016573137 -0.019273588 0.06953089
0.09265436 0.026594833 0.050450474 0.014098164 0.101084925 -0.019287063 0.096172996 -0.02618468
0.10732153 0.027421115 0.13538726 0.0911212 0.110164404 0.0045960695 0.06866193 0.009339912
0.08171614 0.14657576 0.104206 -0.017118955 0.0118746525 0.08774321 0.031404957 0.12869179
0.1497439 0.02077663 0.08351048 0.12234903 0.124609016 -0.0002853495 -0.07405477 0.047133997
-0.0914145 0.057543278 0.04034518 -0.061357252 0.08712865 -0.021257678 0.071299285 0.124552354
0.04106645 -0.07464752 0.059946347 0.08157039 0.13406233 0.083249055 -0.009756077 0.02402366
0.068145886 0.11994475 -0.008984795 -0.047170408 0.018146034 0.07446212 -0.01527304 0.08389939
0.055613894 0.046966814 0.028970145 0.10412185 0.054526024 -0.02984771 0.13411231 0.05034601
-0.012694737 0.09794413 -0.018670257 0.07613483 -0.004254229 0.078495875 0.051383853 0.12459917
-0.0024605566 0.11107069 -0.02977575 0.070507385 0.03556853 -0.0050805137 -0.0065135644 0.08258046
0.054885905 0.036715478 -0.05706093 0.034567423 0.075202286 0.00972535 0.03946393 0.0292216
0.10804076 -0.047007356 -0.05364559 0.11750242 -0.013664408 0.08580155 0.06478441 0.027322669
-0.00017301163 0.004291607 0.07075773 -0.0024192582 0.054325033 0.07731061 -0.027769035 -0.006204102
-0.01781092 -0.006004927 0.012410402 0.058283515 -0.084187455 0.07111186 -0.071607806 0.07571247
-0.03864857 -0.034400426 0.085205905 0.064165965 -0.030861486 0.06656857 -0.0015586016 -0.04062367
0.035697028 0.0643772 0.056022942 0.07663543 0.10728608 -0.067343034 0.10910059 0.023976766

_gen._layers.FF01.0.weight f4 [256, 256]
00000000: f4ce 573c a174 b53c bb90 bb3b b017 f1bc
00000010: 3b7d 413d b2a8 bd3c 5429 103d 7f80 85bc
00000020: 781a b3bc 8e9c 9abc 6d82 d6bc 5301 9abb
00000030: 7288 813c 2014 833c b4b3 01bd 21e9 7bbd
00000040: 0536 5d3d 4021 38bd 2dc7 c8bb 8c7b 17bd
00000050: 8197 cf37 5ddd f4bc a3c0 f3bc 57cc 42bd
00000060: b2ef 4e3b c204 d7bc c866 a53d 8166 09bd
00000070: f1fc 4e3c 1735 ef3c c11d bf3c 121f 93bc
00000080: 2061 17bd f28f 183d e8cc 123d 57df 8fbc
00000090: 9a4e e2bc 5230 793d 84dc 60bd 8ca8 a33d
000000a0: bc3e 6a3d a19d 6c3d 98e2 423d 8232 5ebc
000000b0: f929 0a3d 2e41 4d3d f81a 183d f13e 6cbd
000000c0: b6ca d2bc 49dc 123d c8be c9bc 0e7d 8b3d
000000d0: f7ca 2c3d 2e8a 383d df89 b5bc 2313 1a3d
000000e0: 0111 383c 97d3 0f3d 91b1 793d 16aa 813d
000000f0: d6cb 04bc a675 06bd 2ea7 f33b 17a3 a6bb
00000100: d1dd 7fbc 5bb4 48bd 26b5 f1bc 3bb7 a5bc
00000110: 342b 863c 53b1 ffbb 04d8 72bc 1c77 12bb
00000120: 7e34 6f3d cea4 133d 3545 a03c b9d9 06bd
00000130: 3136 203d e85f 5d3d 988b 2d3d c12c d63c
00000140: 5bc4 853d 525b 513d 0adb 1ebb 99f6 a7bc
00000150: b48d ec3c eddc 3e3d ce70 6c3d 1353 cebd
00000160: 6628 18bb 628b 0b3d 445c fdba 52e2 d5bc
00000170: ae44 6a3c adc9 dc3c 57e8 433d e1ee b33c
00000180: 3920 56bd d475 a338 26c7 02bd 5392 a03d
00000190: 562b ea3c e36f d6bc 4831 5bbd efe5 52bb
000001a0: d7ee a1bc 3aeb 403d 05d7 153d 1002 cbbc
000001b0: 0c09 543c fe48 ccbc 109d 52bc dac5 8dbd
000001c0: 1c97 73bc bc48 2f3b b56e a23d 8cb3 223d
000001d0: 5dde b3bc 41c5 513d 2743 883d 8389 c7bb
000001e0: a184 f0b9 5c03 8e3c 15e6 c73c 3991 22bd
000001f0: 99b6 9b3c 8b82 5dbd e2b5 843c a47e 2f3d
00000200: 6f62 f6bb 9d95 89bc 264c 493d c8b3 93bd
00000210: 41e5 673d cf03 80bc 9bd1 3cbd 11a1 863b
00000220: 3cf7 51bd e96a 193d af00 643d 30d3 01bd
00000230: e0bb 80bc 1e3e bbbc 0b83 523d 2ca3 8b3c
00000240: 7e8e 5b3d 0274 823c 64ca 9b3c c24b 103d
00000250: 7528 04bd 67b6 983c 4d04 b03c 82d2 60bd
00000260: 8fcc 7d3d c4d0 02bd a472 273d 079b 853b
00000270: 070b de3c 2941 503a f842 283d 7cc2 a13b
00000280: 6627 583d 5acb e6bc 2816 0ebb 62cc b33c
00000290: bc2a 7bbc 1e2a d83b 43c7 c6bc 13d2 16bc
000002a0: c241 9c3c 9ff1 6e3d d53d 7b3d ef70 2c3d
000002b0: 9bcc 2a3b 4001 7c3c 57f2 693d b661 5c3d
000002c0: a930 cfbb 0a15 643d 0f6c 143c 2a62 7a3c
000002d0: f08c 923d c34c 883d d4ec 953c 38a8 883d
000002e0: 5c3d fd3c 6764 6bbd 7b52 25bd f738 ffbc
000002f0: 3034 d2bc 7ca3 073d dc93 b33c 0b19 5d3d
00000300: ebbc 623d 7571 d7bc c15a 78bc 114c 15bd
00000310: bc27 abbc 35e0 0d3d 6111 b93d a021 f03c
00000320: 362a dfbc 8a5d 5e3d f09a 523c 125b 3b3d
00000330: 3c83 7fbc acbb c13b 0522 443d b662 0c3c
00000340: 322c 313d deaa 2c3d 9db5 b33c d8c1 fa3c
00000350: da37 6abd 850f a63d 6c02 22bd 1a5a 9f3c
00000360: 41b3 6e3d 5e00 9ebc b5f2 333d 570d a4bc
00000370: e00a afbc 6f55 2e3d 74b5 673d c3e4 f83c
00000380: 9672 b1bc 987f 79bb d590 eebc 3fc7 103d
00000390: bf0a 173c 0b77 143d f229 9ebc a621 c9bc
000003a0: 7c20 be3d 2caa 6c3d 48e9 273d 7165 843d
000003b0: 2f34 d5bc 0470 453d 9ab2 f1bc b5ca 923c
000003c0: 76c6 bb3d 7cda e33c 3b2c 1abc 4838 c03a
000003d0: f07d 763d 503d 24bd b448 923d 74b3 4439
000003e0: f135 963d 183f 063d bcf8 743d 3973 103d
000003f0: 23f6 5cbc 0631 ef3b 69da 44bd 7787 d5bc
0.0131719 0.02215034 0.0057240403 -0.02943024 0.04723857 0.02315173 0.035195664 -0.016296623
-0.021863207 -0.01887348 -0.026185239 -0.004699865 0.015812133 0.016000807 -0.03166552 -0.061501626
0.054006595 -0.044953585 -0.006127259 -0.036983058 2.4746872e-05 -0.02989071 -0.029754942 -0.047558155
0.0031575975 -0.026247386 0.080762446 -0.03354502 0.012633548 0.02920012 0.023329617 -0.017959151
-0.03695786 0.037246652 0.035839945 -0.017562551 -0.02762537 0.060837097 -0.0548978 0.07991132
0.057188734 0.057767514 0.047579378 -0.013561847 0.033731434 0.05011099 0.037135094 -0.057677213
-0.025731426 0.03585461 -0.024627104 0.06810962 0.04218575 0.045053653 -0.022160469 0.037615906
0.011234523 0.035113897 0.060960356 0.063312694 -0.008105239 -0.032827042 0.007435701 -0.00508536
-0.01561685 -0.049000125 -0.029505324 -0.020228973 0.016378023 -0.007803121 -0.01482201 -0.0022348827
0.05839967 0.036045842 0.01956425 -0.03292248 0.03911418 0.05404654 0.042369455 0.026144387
0.065315925 0.05111248 -0.0024239444 -0.02050333 0.028876163 0.04659741 0.057724766 -0.10074439
-0.0023217439 0.034068473 -0.0019329865 -0.026108894 0.014298601 0.026951635 0.047829 0.021964492
-0.052276824 7.794393e-05 -0.031928204 0.07840409 0.028585117 -0.026176399 -0.053513795 -0.0032180508
-0.019767208 0.04709933 0.03658201 -0.024781257 0.01294161 -0.02493715 -0.012854829 -0.06922503
-0.01486757 0.0026746234 0.07931272 0.03972201 -0.021956617 0.051213507 0.06653433 -0.0060893907
-0.00045875183 0.017335586 0.024401704 -0.039689276 0.019007968 -0.054079574 0.01620001 0.042845383
-0.0075190584 -0.016794974 0.049144886 -0.07212025 0.056615118 -0.015626816 -0.046098333 0.004108556
-0.05126117 0.037455473 0.055664714 -0.031695545 -0.015714586 -0.022856768 0.051394504 0.01704558
0.053602688 0.015924457 0.019017406 0.0352285 -0.032265145 0.018641664 0.021486426 -0.054888256
0.06196266 -0.031937376 0.040880814 0.0040773186 0.027104868 0.000794428 0.04107949 0.0049365144
0.05277195 -0.028173137 -0.0021680687 0.021948043 -0.015330013 0.0065968176 -0.024264937 -0.009205359
0.019074325 0.058335897 0.061338264 0.04209989 0.0026061896 0.015381157 0.05711588 0.053804122
-0.0063229394 0.055684127 0.009058966 0.015282193 0.07155788 0.06655266 0.018301405 0.0667271
0.030913047 -0.057468798 -0.040361863 -0.031155093 -0.02565965 0.033114895 0.02192109 0.05397896
0.055355947 -0.026299218 -0.015158356 -0.036449496 -0.02089297 0.03463765 0.09036518 0.029312909
-0.027241807 0.054288425 0.012854323 0.04574115 -0.015595254 0.005912265 0.047884006 0.008568456
0.04325504 0.04215514 0.021937186 0.03061001 -0.05718217 0.08108429 -0.03955309 0.019452143
0.05827642 -0.019287284 0.043932635 -0.020025892 -0.02136749 0.042561945 0.05656953 0.03038252
-0.021661084 -0.0038070437 -0.029121796 0.035346266 0.009218871 0.03624634 -0.01930711 -0.024552178
0.0928354 0.057779476 0.04099396 0.06464661 -0.02602586 0.04820253 -0.02950411 0.017918924
0.09168713 0.027814142 -0.009409959 0.0014665211 0.060178697 -0.040097535 0.07142773 0.00018758868
0.07334507 0.032775015 0.059807524 0.035266135 -0.013486418 0.007299545 -0.048059855 -0.026065571

_gen._layers.FF01.0.bias f4 [256]
00000000: 28ec 0b3d 692e e23c b1ad 2f3d e188 503c
00000010: 15ca 0e3d f3c4 553d fe4d d43d c27d 153d
00000020: 73db 5c3d e587 473c 35d7 a2bc ffa4 9e3b
00000030: 6f84 23bd 6d44 7c3d c144 85bd 8d61 eebc
00000040: 1763 12bc 2e09 3c3d 4542 a53c 4218 eb3b
00000050: af07 0cbd 0450 1fbd 5ec1 85bd 037f efbc
00000060: ef9f 95bc dce0 04bc b14f 423b 5b90 43bd
00000070: bdd5 f93d 5a22 d23c bd11 123d 5bc8 58bc
00000080: b14f a93c 93ae 71bd d5c7 9e3d 58ee 243d
00000090: 2ca9 a93d f853 9b3c 33c2 853d 5e95 52bc
000000a0: 252c 3e3c ed94 a3bc 20b3 ccbb 4657 193d
000000b0: 8451 b7bc 9ddd 6fbd 594e c9bc ac2f fdbc
000000c0: 250b b4b7 67b0 c73c 8412 a93c 92d3 9d3d
000000d0: 5e02 15bc b430 5b3c 0782 523d 8344 f63c
000000e0: 1ac2 91b9 3257 24bc 9e4c bd3b 7093 5cbd
000000f0: fb35 a3bc b3c3 803d ee02 5e3d 3267 23bc
00000100: ecbc 2d3d de5f d33d 7d19 cbbc 5667 94ba
00000110: d4fd f2bc 32b9 f1bb 7272 3dbd 7bf3 2fbd
00000120: 9643 5bbd dbab 5c3d 16df a0bc f77b df3c
00000130: 3217 86bd 4ad9 983d 54ed e03c a60e 243d
00000140: b652 aa3c cb31 6dbc d012 423d 9a80 633d
00000150: 7f1b 653d 10cc 0b3d 3d88 c03c 9aba c2bc
00000160: c86c 3e3c 9d74 413d 0a5f b13d 39f0 b13c
00000170: dbb4 5b3c 33e1 28bc be16 3abc 5d3a c03c
00000180: 6025 07bd e770 893d 71b6 8c3b 0d57 b93d
00000190: b894 863d 0b91 953d 5406 13bd d816 b83c
000001a0: 891f 83bd c936 a7bd f6c0 a73b a76c 023c
000001b0: 2c2d e2bc 96ef 013d c765 df3b 63aa 41bc
000001c0: ce28 d43c 7c4f 2cbc 2e9a 0dbc d5d1 2e3d
000001d0: 8c3d 103c 2c08 e0bc 705b 77bc 26b4 de3d
000001e0: 7b0a 87bc 2237 ed3c f4ad 823d c42c 173d
000001f0: 4415 153d ef5f 36bc 5741 853c 4419 0ebd
00000200: 08ed e43c ada2 ddbc 65d6 3b3c b86c 1bbd
00000210: cd22 db3d 1cea 5dbc ac84 443d d54f 033c
00000220: e975 123c c978 2fbd 468c 21bc 93ce 933c
00000230: 9b83 093d e4e9 343d 7912 f53c c760 1ebd
00000240: faa7 983d 3404 453d 13c5 853c 0a1f ec3a
00000250: a73e 263c 6804 383d 9bfe 7abc 67a4 a03b
00000260: fc2e 093c b3b1 2e3c 937d 793c bb29 aabc
00000270: e48b 843d 7240 b3bb e3e2 053b 2c9b 283d
00000280: 24ec b43d ff1c d63b ff11 4dbd c794 66bc
00000290: 18b9 143d 7f58 0ebd c8f7 753c f615 263d
000002a0: 976a bd3c 7f72 803d 901f 7bbc 093e 963d
000002b0: 0089 41bd 62e6 38bc 131d 213d 501b 8ebc
000002c0: 12aa edbc 6215 93bc 06d0 923c 40fc 253d
000002d0: be86 c83c 7893 193d a642 5b3d 1f2c d63d
000002e0: fd8f 22bd 7b30 5ebd f962 233d a77a ab3d
000002f0: f896 133d 5c7f 353c 64d2 8dbc 6cbc ea3c
00000300: ab8e a7bc 38f7 8a3c 7395 823c 6505 27bc
00000310: e575 513d 5be9 48bd 0777 9d3d a8e5 0f3d
00000320: 35e5 983c 1151 adbc 3e60 fabc da1b 8fbd
00000330: 20ad 1f3d 7d5b f3bc fe04 02bc 6da0 613d
00000340: b6cf f33d 1b19 b7bc 3129 043e 70d3 67bd
00000350: 2dc9 7e3c a02c 4a3b 48fc 17bd 9666 503d
00000360: 97b0 603b 7e2d 46bd f4cd 8c3d c1e8 70bc
00000370: b5eb 9bbb e31c 7e3d dc27 b0bb 24f3 5f3a
00000380: b3d9 05bd 361a d93c 3eed 43bc 119a 483d
00000390: 8a17 e13c c6ee b3bc 5c3b 913c 2937 5e3d
000003a0: b084 363d ec39 833c cfe0 dabc aab5 193d
000003b0: 289e 8f3a 58db c93a 2c3a 4ebc 34f9 0839
000003c0: c13a 23bd 5394 de3b 5c68 88bd abe3 a8bc
000003d0: 8929 fb3c 2a10 26bd beb1 123d c0a4 953d
000003e0: 7a23 913d 1ec1 41bd 3c41 9d3a 15b0 a83b
000003f0: 2dad aabc 5a60 693d 7cd0 27bd bb58 8d3d
0.034160763 0.02761002 0.042890254 0.012727947 0.03486069 0.05218978 0.10366438 0.036496885
0.05392022 0.012178396 -0.01987801 0.0048414464 -0.03992122 0.061588693 -0.065072544 -0.02909925
-0.008934758 0.045907192 0.020173201 0.0071745226 -0.034187015 -0.03889467 -0.065310225 -0.029235369
-0.018264739 -0.008110251 0.002964955 -0.04774509 0.121989705 0.025651146 0.035661448 -0.013231362
0.020667883 -0.059004378 0.07752959 0.040266365 0.0828422 0.018960938 0.06531181 -0.012852995
0.011607205 -0.019968474 -0.0062469393 0.037436746 -0.022377737 -0.058560956 -0.024573492 -0.03090652
-2.1462862e-05 0.024376107 0.020638712 0.077063695 -0.009094803 0.013378311 0.051393535 0.030061966
-0.00027801172 -0.010030555 0.0057769557 -0.053851545 -0.0199232 0.06287327 0.054202013 -0.009973334
0.042416498 0.103210196 -0.024792427 -0.00113223 -0.02966205 -0.0073768133 -0.04625172 -0.04295681
-0.05353125 0.05387483 -0.019637626 0.02728079 -0.06547393 0.074633196 0.027456917 0.040053032
0.020791393 -0.014477204 0.047381222 0.055542566 0.055934425 0.034130156 0.023502463 -0.02377062
0.011622615 0.04723035 0.086607054 0.021720992 0.0134098185 -0.010307598 -0.011357961 0.02346533
-0.032994628 0.067109875 0.0042942096 0.09049807 0.065713346 0.073030554 -0.035894707 0.02247183
-0.06402499 -0.08164746 0.0051194383 0.007960475 -0.02760943 0.031722628 0.0068175527 -0.0118204085
0.025898363 -0.010516997 -0.008642716 0.04268058 0.008803736 -0.027347647 -0.015097484 0.10874204
-0.01648449 0.028956953 0.06380835 0.036907926 0.036397234 -0.011131271 0.016266508 -0.034692064
0.027945057 -0.027055109 0.01146469 -0.03794548 0.10699997 -0.013544586 0.04797809 0.008014639
0.008939245 -0.0428398 -0.009860104 0.018042838 0.033572774 0.044168368 0.029916035 -0.038666513
0.07453914 0.04809971 0.016329324 0.0018014621 0.010146773 0.044926077 -0.015319492 0.004902411
0.008373018 0.010662484 0.015227693 -0.020771852 0.064719945 -0.005470329 0.0020429424 0.04116361
0.08834103 0.0065342183 -0.05006599 -0.014073557 0.03630933 -0.034752365 0.015012689 0.040548287
0.023122115 0.062718384 -0.015327349 0.07336051 -0.047249794 -0.011285396 0.039334368 -0.017347008
-0.02901176 -0.017954532 0.017921459 0.040523767 0.024478313 0.037494153 0.053530358 0.10457634
-0.0396881 -0.054245453 0.03988931 0.083730035 0.036032647 0.011077728 -0.017312236 0.0286543
-0.020453772 0.016963586 0.015940404 -0.010194157 0.051137824 -0.04905067 0.07688718 0.035131127
0.018663982 -0.02115682 -0.03056347 -0.06987734 0.038983464 -0.029706711 -0.007935761 0.055084635
0.11904852 -0.022350838 0.12906338 -0.056598127 0.015550894 0.0030849352 -0.03710583 0.050879084
0.0034284943 -0.04838323 0.0687522 -0.01470393 -0.004758323 0.062039267 -0.0053758454 0.00085430057
-0.032678317 0.026501756 -0.011958418 0.048975054 0.027477045 -0.021964442 0.0177285 0.054251824
0.044560134 0.01601883 -0.026718525 0.037526764 0.0010957168 0.0015400453 -0.012587111 0.00013062806
-0.039850954 0.006792584 -0.0666053 -0.020616373 0.030659454 -0.04054276 0.03581404 0.07306814
0.07086845 -0.04730331 0.0011997591 0.0051479437 -0.02083453 0.056976654 -0.04097031 0.069016896

_gen._layers.FF03.0.weight f4 [128, 256]
00000000: 0aaa a3ba 314b 5fbc 3224 a33d 7a4c a83c
00000010: 267f 17bd 6e76 023c 10eb a73d 6c29 983d
00000020: d7ef 113c 4e12 6dbd 9ce2 323d e7c1 c1bc
00000030: 2f12 953c 3c86 173e a2b2 12bc f640 0cbd
00000040: 2faf a63d 216f 873c fcf5 1ebc 8764 b03d
00000050: 5eb3 7dbd 2c93 893d 5190 a5ba f489 6abd
00000060: cfdc 2dbd d324 e33c 5322 2c3d 0811 9cbd
00000070: da3e a63d 81c5 973d 344a a63d 842d 603d
00000080: c23f 33bd f80d 0dbd afcc 953d b7d4 f83c
00000090: 86eb b6bc 8196 92bb 1373 4d3c f962 503d
000000a0: cb2a 1a3d a6e0 a73c 5055 16bb cd8f 8f3a
000000b0: 0dea f1bc f246 ca3c 4335 443d a114 91bd
000000c0: 7741 28bd 0810 b6bc 7e06 fabc f039 bc3c
000000d0: a65b 6d3d d39e 6bbd 6ef8 ef3a 807f 1fbd
000000e0: 0154 f43c 0eda 513d 7fde eb3c 7973 23bd
000000f0: 2ce3 683d e63a 1a3d bb15 efbb f070 d93c
00000100: ed75 4b3d a7b6 b53d 6b51 77bd f94e a6bc
00000110: 7156 0bbc 06ff 9d3c a76c 03bd 09c6 35bd
00000120: 04cb 973c e64c 2bbd 44f2 9a3c e67e 18bd
00000130: 01a8 453d d9f7 3b3d 990a 49bd d429 b4bc
00000140: e275 413d 65dc 003c 4157 953c 3007 833d
00000150: 1540 c73c 3d26 91bc d16f b23b bbe6 c93c
00000160: 7b18 213d 0fe6 373c d4e0 b6bc 5b7c 4e3c
00000170: c6c4 22bb 697f 153d 0b57 4d3d 2c53 b1bc
00000180: 76ca f7bc c78c f5bd 1ee3 b1bc 33ad f63d
00000190: 9a9d 5a3d 0f84 86bd 57cb da3c 21cc 51bc
000001a0: 4054 7a3d 130e 4abc cd34 f1bc af01 af3c
000001b0: 31a6 84bd fbeb b23d 45be 063d 08f1 5ebb
000001c0: 2506 05bd dd5e a73c 7f18 63bd 2c1c 6cbd
000001d0: 26fd bc3d d19e d438 758e 9cbc 82d5 a83d
000001e0: 7987 a5bc 8c85 cd3c 2d02 093d adb2 7bbd
000001f0: 1783 ac3c eeec 5f3a dadf f13c 257f a03c
00000200: 741f 71bd d0ea 87b9 3c33 6a3d ce01 e83c
00000210: 7e1c 10bd b85b 95bc 460b b53d 1da3 de3b
00000220: c9ed 973c e85b 6abd 2b9c 903b 0dbb 80bc
00000230: ea5a 75bd 1ab4 b93c 80da 55bd d52c 92bc
00000240: 404d 813c 6b41 0ebc d4ea 453d eba1 7ebd
00000250: 3c6e f4bc 46a2 1fbd 8dd4 d43c b399 c6bc
00000260: 85d7 47bb f7e2 343d f3e4 babb 37e1 703c
00000270: 1295 13bd 136a 65bd 3043 89bd c9cf 0a3d
00000280: 2f07 263d 70e3 47bd 0aa4 403d 035e 783c
00000290: 642c 88bc a5ff 01bc 298b 4c3d d3bd aa3a
000002a0: b1f8 a3bc 9f3a fc3d 5b4b a93d 6132 083d
000002b0: f273 08bc 4509 ee3b d8d3 b93d b7c1 1f3d
000002c0: bf46 713d eb67 ed3b fb9e 57bd ea8b 423c
000002d0: ea0f 303c 6fc4 1fbd 5111 13bd 838d 0b3e
000002e0: 7223 1abd 94a8 43bd 740c 1b3d 7ad0 42bc
000002f0: dea0 a1bc 5c61 4dba bf5a 71bd bca1 843c
00000300: 770d 23bd a441 07bc 0af3 1cbd 7dd8 4e3d
00000310: 4a1b d0bc 13a7 863c 0027 b63c 9e7a e53c
00000320: 4d09 803d c397 14bc 32dc d4bc 7988 673d
00000330: 1553 d23b 4ccc d8bc 62e5 a0bc 7274 e6bc
00000340: 608b 54bc bf53 443c b136 d13d a2f1 12bd
00000350: 313a b23d ec93 b63c aecb e5bb 3919 4bbd
00000360: 425f 213d 6d5b 13bd 0b39 b23d cfed 32bd
00000370: dadf bfbb 777f 86bc 31a5 203c b939 943a
00000380: 74fc f0bb fdee 573d 86fd 0e3d 8f56 e03c
00000390: 1629 1bbc 5a6d 2d3d 70ba 973d adfb 18bd
000003a0: 7bed 823d 9371 ef3c 9e63 33bb d544 14bc
000003b0: 540b 883c 1ce0 113d b8b8 b9bb 7b42 6bbd
000003c0: 56fe 4bbc 8e9a a23c 27bb 2bbb f8f3 f3bc
000003d0: 595f 1ebd e6ae 5e3b a5bd e5bc 5c18 96bb
000003e0: a119 6e3d 07bf f73b fb09 d3bc d436 c83d
000003f0: d84d 88bc 8e7a 643d 47d2 f33b 4d34 2e3d
-0.0012486589 -0.013628767 0.07965888 0.02054428 -0.036986493 0.007962806 0.081991315 0.074297756
0.00890728 -0.057878785 0.043673143 -0.02365203 0.018197147 0.147973 -0.008953722 -0.03424164
0.08138882 0.016532483 -0.009702202 0.08612924 -0.061938636 0.06717524 -0.0012631511 -0.05726047
-0.042446908 0.02772752 0.04202492 -0.07620436 0.08117457 0.07410718 0.08119622 0.054730907
-0.043761976 -0.03443715 0.07314431 0.030374868 -0.022329103 -0.004473508 0.012539643 0.050875638
0.037638467 0.020492863 -0.0022939034 0.001095289 -0.02953055 0.024692032 0.047902357 -0.07084013
-0.041078057 -0.022224441 -0.030520674 0.022976846 0.05794873 -0.057524513 0.0018308291 -0.038939953
0.029825212 0.051233344 0.028792618 -0.039905045 0.056857273 0.037653826 -0.0072962916 0.02654311
0.04967301 0.08872729 -0.06038038 -0.020301329 -0.008504496 0.019286644 -0.03208604 -0.044378314
0.018529423 -0.041821383 0.01891435 -0.037230395 0.048255924 0.045890663 -0.049082372 -0.021992601
0.047231562 0.007865046 0.018230082 0.06397855 0.024322549 -0.017718429 0.0054454585 0.024646154
0.039329987 0.011224284 -0.022324003 0.012602891 -0.0024836524 0.03649846 0.05013184 -0.021646105
-0.030247908 -0.11989742 -0.021714743 0.12044754 0.053372957 -0.06568157 0.026708288 -0.012805016
0.061115503 -0.012332457 -0.029444123 0.021363107 -0.06477011 0.08736416 0.0328963 -0.0034018178
-0.032476563 0.020430977 -0.055443283 -0.057644054 0.09227972 0.000101385296 -0.019110898 0.082438484
-0.0202062 0.025088094 0.03344934 -0.061449695 0.021058602 0.000854208 0.029525686 0.019591877
-0.058867887 -0.00025924155 0.057177767 0.028321173 -0.035183422 -0.018232211 0.08840041 0.006794347
0.018546002 -0.057216555 0.004413148 -0.015714193 -0.059901156 0.022668887 -0.05221033 -0.017843643
0.015783906 -0.008682589 0.048319653 -0.062166136 -0.02983772 -0.038973115 0.025980258 -0.024243211
-0.003049345 0.044161763 -0.0057035624 0.014702133 -0.036030836 -0.056009363 -0.06702268 0.033889566
0.040534195 -0.048800886 0.04703144 0.015159133 -0.01662273 -0.007934486 0.0499374 0.0013026543
-0.020016046 0.123158686 0.08266326 0.03325117 -0.008328425 0.0072642886 0.09073609 0.0390031
0.05890536 0.007245054 -0.05264185 0.011874178 0.010745982 -0.039005693 -0.035905186 0.13628201
-0.03763146 -0.04776819 0.037853673 -0.011890525 -0.019730028 -0.0007834637 -0.058924433 0.016190402
-0.039807763 -0.008255396 -0.038317718 0.050499428 -0.025403637 0.01643709 0.022235394 0.02801257
0.06251774 -0.009069386 -0.025983904 0.056526635 0.0064185956 -0.026464604 -0.019640628 -0.028131697
-0.012972683 0.011982857 0.1021551 -0.03587497 0.087025054 0.022287332 -0.007012806 -0.0495846
0.039397486 -0.035975862 0.08702286 -0.043683823 -0.0058555426 -0.016418202 0.00980501 0.0011308707
-0.0073543135 0.05271815 0.034909748 0.027385024 -0.009470245 0.042340614 0.07408607 -0.03734939
0.06392952 0.029228961 -0.002737261 -0.009049614 0.016606964 0.035614118 -0.005667772 -0.057436448
-0.012450775 0.019849088 -0.002620408 -0.02977942 -0.03866515 0.003397876 -0.028044531 -0.0045805406
0.05812991 0.007560614 -0.025761595 0.09776083 -0.016638681 0.05578094 0.0074408385 0.042530347

_gen._layers.FF03.0.bias f4 [128]
00000000: 7267 193c bfc7 32bd 4f50 113d a383 1dbd
00000010: 2cdc 613d 2f55 eb3c 7cd3 d6bb 8634 963d
00000020: 2ad9 8d3d 8e29 91bb 91a9 ffbc eb5b 4e3d
00000030: 0345 bfbc 3dcc 5d3d 653c 6b3d 003b 593d
00000040: f604 aa3c 1bba 8f3c 2f3a 853d 01ef 68bd
00000050: f8f9 9cbc 94bc de3c a6f8 cc3c 9430 63bd
00000060: b6c5 61bd bbdd 7ebd 3d10 2fbd 40a8 ed3a
00000070: d4bf 8abc 576f 6d3c 2519 7bbd b8a6 72bd
00000080: 6fb7 49bd cd25 e6bc 7232 4abd ef9c 1f3d
00000090: 1187 25bb 9b25 073d bef0 10bd d8a0 013d
000000a0: 4109 7fbd bb00 ba3c b9ec 65bd 8bcc f93c
000000b0: 9a5c f6bc 95af 97bc a220 2c3d e641 a83d
000000c0: 5faf 8a3d 983b d0bb c613 55ba bc78 7f3c
000000d0: 4224 3e3d 0512 abbb 33f5 e8bc 8075 303d
000000e0: 18d8 dbbc 3977 acbc 4c9e 033d a98d 0cbd
000000f0: b7d6 1fbd 4ab8 213d 0562 b93c ec2d 4cbd
00000100: b9fb 9eba 0daa 823d 4afc 753d 7b9a 8c3d
00000110: 6034 893c d2fa a3bd 5dfe b1bc ac00 81bd
00000120: 9337 6e3d 929c 933d cf82 033d 74cc c63c
00000130: e8f1 53bd 9e28 1ebd a7b3 133d f6a3 2e3d
00000140: 5b5a afbc eb8e cdbc 937a 62b9 0b30 713d
00000150: 4587 d03c b608 d23c 9950 3e3c 306f 273d
00000160: eeee 23bd 53c6 453c 1362 15bc 0451 79bc
00000170: 509a 68bd 4feb 423d f2bb 9a3b 32a2 4bbc
00000180: 9dd7 8b3c 5298 83bd d77b 2dbc e90b 053b
00000190: e89f 5d3d 9438 263a a15f 77bd 08d8 593c
000001a0: 86f0 a43c 99a5 c33c 183b 33bc 6c39 253d
000001b0: 90fc 10bc 838d c3bc a166 673d c381 5bbd
000001c0: 56a8 84bd 18f5 b93c 4407 393c 1429 f73c
000001d0: 1539 033d 6ba9 113d aedd 2abc bcc3 9cbc
000001e0: 93ee 2d3c 892b ad3b 61a3 323d fa7c 66bd
000001f0: a971 42bd 595b 0c3d c446 ba3c 2f80 cbbc
0.009363042 -0.043647524 0.03547698 -0.038455617 0.055141613 0.028727142 -0.0065559726 0.07334237
0.069261864 -0.0044300025 -0.031208785 0.05038063 -0.023348337 0.054149855 0.057430644 0.053034782
0.020754319 0.017544797 0.06505238 -0.056868557 -0.019162163 0.02718953 0.025020909 -0.05546625
-0.055120192 -0.062223177 -0.042740095 0.0018131807 -0.016937174 0.0144918775 -0.061303277 -0.059241027
-0.0492472 -0.028094197 -0.049364515 0.038968023 -0.0025257508 0.032994848 -0.03538584 0.031647533
-0.062264685 0.022705426 -0.05613396 0.030493042 -0.030073453 -0.018516341 0.04202331 0.08215694
0.06771731 -0.0063547604 -0.00081282516 0.01559275 0.046421297 -0.005220654 -0.028437233 0.043080807
-0.02683644 -0.021052944 0.032133386 -0.034314785 -0.039023127 0.039482392 0.022629747 -0.049848482
-0.0012129463 0.06380091 0.060055055 0.06865402 0.016748607 -0.080068246 -0.021727735 -0.06298956
0.05815847 0.07207598 0.03210717 0.024267413 -0.05174437 -0.038612954 0.03606 0.042636834
-0.02140539 -0.025092563 -0.00021598702 0.058883708 0.025455127 0.02563892 0.011615896 0.04087752
-0.040022783 0.01207121 -0.009117621 -0.01521707 -0.05678779 0.04758769 0.004722112 -0.012428807
0.017070586 -0.06425537 -0.010588608 0.0020301288 0.054107577 0.0006340828 -0.060393933 0.013296135
0.020134222 0.023882674 -0.010939382 0.040337965 -0.008849278 -0.023871189 0.05649436 -0.053590547
-0.0647742 0.022699878 0.011293236 0.030170955 0.03203686 0.03556196 -0.010428829 -0.019136302
0.010615963 0.005284731 0.04361284 -0.05627153 -0.047471676 0.034266803 0.022738822 -0.024841396

_discrim._layers.FF00.0.weight f4 [256, 128]
00000000: 6533 acbd 7322 873a ff17 053d 485a 61bd
00000010: d655 a43d 6620 adbd c6e5 10bd 633c 363d
00000020: 2d31 053d fcac 313d 5b16 8c3d 461b 1a3d
00000030: 0368 c6bc 0a64 983d 1d0f 29bd 5382 be3d
00000040: 7684 9fbd 695e b83c 9975 9d3d 7f8a 3a3c
00000050: f41f 413d 4397 473d 4182 8a3d 524e 483a
00000060: 656f 6fbd fe80 823c e55f 9dbd b3c5 f0bc
00000070: 83bc 0b3d f385 9cbd 9d55 4f3c f2fd c43b
00000080: 63ce c6bd 5a9c 683d 79e7 3ebd ea20 70bc
00000090: 9ace f53c 5864 1cbd 5fdf 60bd f404 43bd
000000a0: 0374 aabd 3eaa f3bc bb72 833c d912 c23c
000000b0: 0191 443c 4f88 66bc 633e b03c bab3 84bd
000000c0: 9f27 ecbb 832d 9d3d e9c7 22bc 3322 683d
000000d0: fe8b e8ba cd23 2f3d 3a29 5dbd fa6a 82bd
000000e0: c89f bb3d 2ae2 9cbd 78d2 41bd ef0d fc3c
000000f0: ed55 4c3d 56e8 38bd c6bf 553d 57d4 a5bc
00000100: 028a 19bd ad55 c33c 1077 bcba fc3d 90bd
00000110: 9a50 e8bc 1638 84bd 7fa8 de39 88e2 9abd
00000120: cc47 a3bd 9988 1ebd 9301 2e3d fe03 683d
00000130: 5a16 613d 33b3 ddbb a5f0 003d b56d 0a3d
00000140: 1e06 ef3b 90ec 74bc 7a23 803d b96b e63b
00000150: 0b72 183d 4ee9 aebd 7cdf 71bd 5cb8 a23c
00000160: b134 943d 4165 1e3d 4e67 533d 8b4b 98bd
00000170: abaa a03d 3ebd 443d fcd6 323d fb61 b43d
00000180: 72b0 923c a15f 6c3d 6b7a 85bd 5997 a7bd
00000190: 886f 9f3d b3c1 4bbd 23d1 63bd 01b0 633c
000001a0: 3cc0 7e3b cdf6 3abd 47d9 f13a cca4 c1bc
000001b0: b281 adbd 8baf 05bd 5aa4 933d 6e7d 783c
000001c0: 2aef a4bb 4ce4 43bb 8b45 cdbd e1cb 3a3d
000001d0: 2fc8 81bc 3d06 98bd f69b 793d 63a9 80bd
000001e0: 7881 6d3d 542a 80bd e2d2 c7bc 5f64 afbd
000001f0: 180f acbd 7d3e 313d fab3 a2bd a259 28bd
00000200: 8b86 00bd 5351 6fbc ae9c 2a3c 2c22 3abd
00000210: d28b 89b8 d889 be3c 1465 973d bf7a b03d
00000220: 8859 9ebd 32c7 35bc 738c a7bd 4f4c 0bbc
00000230: 76f4 05bd 8f99 c5bb f16c 753d b36b 8cbd
00000240: 7d9b b8bc ec82 8c3d 5046 90bd 153e c93b
00000250: 3c43 c63a 2f25 4f3d 25ca 963d 82b0 323d
00000260: 93a9 bcbc bd21 1fbd d1a9 693d 4d34 73bd
00000270: a7dc 863d 05a4 b7bd aab4 70bc f3f7 90bd
00000280: 518a 7d3d 5e3f 9fbc edc6 103d 58e1 aabd
00000290: 2857 af3d ddda b73d 4a28 923d 0e43 903c
000002a0: 8487 aa3d 2125 83bc 73a8 a93d 64f5 823d
000002b0: 0c50 4d3d ff5c 53bd 72fd 9d3d 9eb9 ac3d
000002c0: 162b 15bc 0156 a1bd bebe a63b dfc8 e23c
000002d0: 5aff 6fbd e341 7f3d 5a1d a43d 9a77 39bd
000002e0: 5138 3abd 91fa 9dbd 6252 403d 81dc 913c
000002f0: 9abf ce3c e314 5e3d 07d7 cb3c e720 933d
00000300: 6879 ad3c 104c 3fbd 6f08 383d 485c d4bb
00000310: 55c8 393d 436b e0bc 7c4e 2f3d 0903 383d
00000320: c5e3 cf3c 1334 533d a05c 923b 0109 b53d
00000330: e5f1 373b 8277 1d3d a895 8a3d 937e b5bd
00000340: 78c9 22bd e86e a33c 1c1b 74bd 6c0d a63d
00000350: 72d7 463d 4351 4abb 24b0 5dbd 0faa c7bc
00000360: eabd c03c 7387 01bb 6cc1 873d ce9b 9abc
00000370: 4005 413b d8d0 58bd c4e3 bc3d 5e85 b73d
00000380: d0b9 9ebd b638 c03d e71b 8e3d a3b8 9abd
00000390: d1a9 83bc 79c7 0fbd 9f8a 823a 9110 9d3d
000003a0: 8a65 823d 8a50 acbd 11b8 7fbc 668f 763d
000003b0: 4a53 9b3d 36fb 5d3d 8490 783d 6656 83bd
000003c0: 75f7 123d 9589 743d c731 f4bc 8450 6c3d
000003d0: 91c9 aabc d9ab 323d bec9 a23b 3935 003d
000003e0: 5593 993d f4ed a53d 8da3 a83c 2927 af3d
000003f0: 98fb 5abd aaee 813d fd5d 483b 5342 9c3d
-0.0840824 0.0010309949 0.032493588 -0.05501774 0.080241844 -0.08453445 -0.03537538 0.044491183
0.0325176 0.04337786 0.068402015 0.037623666 -0.024219519 0.07440956 -0.04127418 0.09302201
-0.07788937 0.022505956 0.076884456 0.011385559 0.047149613 0.04872824 0.06763125 0.0007641065
-0.058455843 0.015930649 -0.07684306 -0.029391145 0.034115326 -0.07642736 0.012654689 0.006011718
-0.09707334 0.056789733 -0.04660747 -0.014656285 0.030005742 -0.038181633 -0.054900523 -0.047612146
-0.08322909 -0.029744264 0.016045919 0.023690628 0.011997462 -0.014070584 0.021514123 -0.064795926
-0.0072068716 0.07674696 -0.009935358 0.05667324 -0.0017741916 0.04275875 -0.053994395 -0.063680604
0.09161335 -0.07660325 -0.04731986 0.030768363 0.049886633 -0.045143448 0.052184843 -0.020242853
-0.03748513 0.023844564 -0.0014378745 -0.070430726 -0.028358746 -0.0645601 0.0004246868 -0.07562739
-0.079726785 -0.03870449 0.04248197 0.056644432 0.054952957 -0.006765747 0.031479497 0.03379603
0.0072944304 -0.014948979 0.062567666 0.0070318845 0.037218135 -0.08540593 -0.059051022 0.0198633
0.072366126 0.038670782 0.05161219 -0.07436284 0.07845052 0.048032038 0.043662056 0.08807751
0.017906401 0.057708386 -0.0651749 -0.08183164 0.07784945 -0.049745273 -0.05561937 0.013896943
0.0038871905 -0.045645524 0.0018451595 -0.023638152 -0.08472003 -0.032638114 0.07209082 0.0151666235
-0.0050333934 -0.0029890714 -0.1002303 0.04560459 -0.015842525 -0.07423065 0.06093975 -0.06282308
0.0579848 -0.062580734 -0.024392549 -0.08564066 -0.084013164 0.043272484 -0.07944484 -0.041101106
-0.03137831 -0.014606792 0.010413332 -0.045442745 -6.5587126e-05 0.023259088 0.07392326 0.08617162
-0.077319205 -0.011094855 -0.081810854 -0.00850208 -0.03270384 -0.0060302685 0.059918348 -0.068564795
-0.02253508 0.06860909 -0.07044661 0.006141434 0.0015126239 0.05057257 0.07362775 0.043625362
-0.023030078 -0.038850535 0.057046715 -0.05937605 0.06585055 -0.08966831 -0.014691511 -0.070785426
0.061899487 -0.019439396 0.03534596 -0.08343762 0.085615456 0.08977292 0.07136591 0.0176101
0.08326629 -0.016008915 0.08284082 0.06394461 0.050125167 -0.05160236 0.077143565 0.08433841
-0.009104511 -0.07877732 0.005088656 0.027683673 -0.05859313 0.062318694 0.08013411 -0.045280077
-0.045463864 -0.077138074 0.046953566 0.01780534 0.025237847 0.054219138 0.024882806 0.0718401
0.021176055 -0.0467034 0.044929918 -0.0064807273 0.045357067 -0.027394896 0.042799458 0.04492477
0.025377164 0.051563334 0.004466608 0.08839608 0.0028067764 0.03844405 0.06766826 -0.08862033
-0.039742917 0.019950345 -0.059596166 0.08108029 0.04854531 -0.003087119 -0.05412306 -0.024373082
0.023528058 -0.0019764572 0.06628689 -0.018873122 0.0029452592 -0.052933544 0.0922313 0.08960985
-0.07750285 0.09385817 0.06938916 -0.07554748 -0.016072186 -0.03510234 0.0009959525 0.076691754
0.06367023 -0.08413799 -0.01560785 0.06019535 0.075842455 0.05419465 0.060684696 -0.064129636
0.035880525 0.05970152 -0.029808892 0.057693973 -0.020848067 0.043620918 0.004967897 0.031300757
0.074988045 0.081020266 0.0205858 0.08552391 -0.053462595 0.0634435 0.00305736 0.07629838

_discrim._layers.FF00.0.bias f4 [256]
00000000: a1e0 633c f22f 95bc 2103 513c e1be 51bd
00000010: 40e7 be3c 9416 883d 7bbb 85bd 06c2 ab3c
00000020: be86 80bb c5ce bdbc ec9d b23d dbc5 02bd
00000030: 8551 e0bc f869 9f3b 10b6 23bc 775e 3abd
00000040: b6ab 7cbd 9c27 8f3b 5587 a33d 0aea 27bb
00000050: 524c a03d 231d a1bc d152 723d a0f2 84bc
00000060: 208b d6bb 23d3 d83c d607 073c c81e 9a3d
00000070: 08e1 973d 7997 3f3d 0e9c 26bc 2a5a 26bd
00000080: 803d 98bd e057 5d3d 9ce9 ae3d 4a85 003d
00000090: 45d4 843d dac0 6b3c 54be aa3d f45e 8c3d
000000a0: a75d 3fbc 3390 81bd a1fc 64bd f58f a93d
000000b0: 23a8 6ebd 04fb a03d 419f 93bd 5555 ea3d
000000c0: 5c41 193d f169 ac3d a96e 443d 512b b93b
000000d0: 071e fbbc 83fe 943d 1c8a 8abd 6e48 243d
000000e0: 7a35 c83d 8834 afbc 87ac c73d f2c6 0e3c
000000f0: ba10 473d fd3a 72bb f4c5 9abd 44f1 bf3d
00000100: 7d11 78bd 8316 513c 80cb 37bd d624 c13d
00000110: c609 763d 474e 72bd bb65 51bd 133f b53c
00000120: 05c5 323d 9cdb 67bc 41a2 ccbc a663 b93d
00000130: 382c b9bc d440 a23d c1b2 70bd db59 a33d
00000140: 7aa6 ab3d 458b 5bbc ad27 60bb a314 b43d
00000150: b0e0 c4bc 300b a83d 52dd abbd b4fa 74bc
00000160: 80bd d63c 96b6 84bd db41 043d 9fb5 a8bd
00000170: af72 f1bc b992 fc3c 1c1f a03b f8f1 99bd
00000180: d546 af3c a8dd a63d 9866 9e3d bb13 d0bb
00000190: 0e83 d0bc d506 8abd bcbe 34bb c62a 54bc
000001a0: 1f2e c83c 4f03 65bd d44a b93d c4e3 373c
000001b0: 8a87 e63c 07fb b23c 16bb 74bc 02fd 4bb9
000001c0: 5b34 3d3d 6a34 8c3c 6bed 96bc d40a 7bbd
000001d0: a8b4 913c f96f 9ebc ee41 023c cc5c 50bc
000001e0: 7b17 97bd 07c5 debc 0311 f7bc 68e8 3c3d
000001f0: a5d6 71bd 611f 953b 09d0 72bd 5763 583c
00000200: 6281 1c3d 0e7a 8d3c 4397 0ebd f7fc 683c
00000210: 1f81 81bd 519f fbbb bd58 e3bc eceb 3cbd
00000220: 4194 22bd 96ba 5a3d c9a8 d93d 2d60 39bd
00000230: 06a3 6cbd d933 e9bb 574b 5cbd 6fc3 7b3d
00000240: 7577 813d 7f28 993c 3db5 823d 2316 8b3d
00000250: 5852 15bc 7152 c9bd f4e7 21bd 3002 7d3d
00000260: b2c0 d43d e3a8 2b3d ec10 823d a456 3bbd
00000270: 7913 b9bd 91c6 f53c e730 103d 736a c63d
00000280: ad27 9fbd db39 84bd 7a8f 0ebc 611e f03c
00000290: 6095 30bc 0493 7cbc b434 d33c b66d b6bd
000002a0: fff3 7abd dd76 ac3c 8488 0a3d 6ae1 a83d
000002b0: cbc5 273d 7caf 46bd 2326 67bd 938a 6cbd
000002c0: 568f 0ebc 5e03 ae3d 2abf e5bc efb7 5e3d
000002d0: e0ed 48bd 53c8 a53d 157d faba 6772 6f3c
000002e0: 2e57 6cbd 010c 99bd 13ef 063b d017 953c
000002f0: 4751 0bbd b3a9 c63d f4a5 f2bc 6085 82bd
00000300: dc44 7cbb dc77 733c 91d4 f63c f0a3 db3c
00000310: 2655 483d d8a2 253d 95bd 5d3d 9af2 893d
00000320: 31cc 51bd 965e 50bd 3e33 aa3d 36b7 6a3d
00000330: d145 913c 47b2 ce3c 7464 d33c 3d60 07bd
00000340: c5aa 253d 6965 9abd 2f86 d33c 61fd d83d
00000350: b123 0dbd 5a73 943d 2ff4 debc 66f1 263d
00000360: 1541 7cbd c3fb f4bb 8c9e 17bd 4cae d73d
00000370: ca46 09bd 6349 893c 0474 dd3c 665f 3c3d
00000380: 1545 1d3d a440 6ebd 8da8 94bc d415 293d
00000390: b219 09bd 50e7 4fbd 148a 91bd 9591 643c
000003a0: 740b 07bb 311a 1c3d 19df d03d e326 8e3d
000003b0: a994 3e3d 9366 efbc 7fa8 e13c 6912 74bc
000003c0: 5e29 8c3d 2a73 f0bc dd51 42bd e145 89bd
000003d0: b060 94bd 1130 bb3d f7b9 363b 7507 bc3a
000003e0: b839 8b3d cc38 ddbc ba67 7a3c 53a3 063d
000003f0: 35ec a83d 36f3 8fbc d6fa 8fbd 56ee 883d
0.013908536 -0.018211339 0.012757094 -0.051207427 0.023303628 0.066449314 -0.065299 0.020966541
-0.0039223125 -0.023169884 0.087215275 -0.03192697 -0.027382622 0.0048649274 -0.009992138 -0.045500245
-0.061687194 0.0043687355 0.07984797 -0.0025621676 0.07827057 -0.019667214 0.05916101 -0.016228974
-0.0065473467 0.026467865 0.008241614 0.07525402 0.07415968 0.046775315 -0.010169042 -0.04061333
-0.07433605 0.054038882 0.08540651 0.031377114 0.064858 0.014389241 0.083370835 0.06854048
-0.011680043 -0.06326332 -0.05590499 0.08279411 -0.058265816 0.078603774 -0.0720811 0.11442057
0.037415847 0.08418644 0.047957096 0.0056509157 -0.030653967 0.07275107 -0.067646235 0.040108137
0.09775825 -0.021387354 0.09749704 0.008714424 0.048599936 -0.003696143 -0.07557288 0.0937219
-0.060563553 0.012761715 -0.044871807 0.09430854 0.060067914 -0.059156682 -0.05112241 0.022124803
0.043644924 -0.01415148 -0.024979712 0.090522096 -0.022604093 0.07922521 -0.058764223 0.07976123
0.08381362 -0.013399904 -0.0034203336 0.08792999 -0.02403292 0.08205259 -0.08391823 -0.01495235
0.026213408 -0.06480138 0.032289367 -0.082377665 -0.02947363 0.030831682 0.004886521 -0.07516855
0.02139608 0.08147746 0.07734412 -0.0063500083 -0.025453117 -0.06739584 -0.0027579507 -0.012949651
0.024436055 -0.05591136 0.090474755 0.011223737 0.028140802 0.021848215 -0.014937183 -0.00019453841
0.04619251 0.017114837 -0.018423757 -0.061289623 0.017786339 -0.019340502 0.007950289 -0.012717437
-0.073775254 -0.02719356 -0.030159479 0.046120077 -0.05904259 0.00455086 -0.05928043 0.013207278
0.038209327 0.017270114 -0.034812223 0.014220468 -0.06323456 -0.007678904 -0.027752275 -0.04612343
-0.039692167 0.0534006 0.10627896 -0.045257736 -0.05777266 -0.0071167764 -0.053782787 0.061465677
0.06321613 0.018696068 0.06382225 0.067913316 -0.009113871 -0.098301776 -0.03952785 0.061769664
0.10388316 0.04190911 0.06350884 -0.045736924 -0.09036917 0.03000191 0.035202887 0.09688272
-0.077712394 -0.064563476 -0.0087012 0.02931136 -0.010777801 -0.015415911 0.025781967 -0.089076445
-0.06126785 0.021052772 0.033821598 0.08246119 0.040960114 -0.0485072 -0.056432854 -0.057749342
-0.008701166 0.08496736 -0.028045256 0.05437463 -0.04905498 0.080948494 -0.0019110764 0.014614678
-0.05770033 -0.07472993 0.0020589277 0.018199831 -0.03401306 0.09700336 -0.029620148 -0.063730955
-0.0038493192 0.01486012 0.030130656 0.02681157 0.04890933 0.040438503 0.054135878 0.06735726
-0.051220123 -0.050871454 0.08310555 0.05730363 0.017733486 0.025231494 0.025804736 -0.033050764
0.04044606 -0.07538874 0.02582082 0.10595203 -0.034457866 0.07248564 -0.027216045 0.04075756
-0.061585505 -0.0074763014 -0.037016436 0.10531291 -0.033514775 0.016758626 0.02703286 0.045989417
0.03839596 -0.058167115 -0.018146778 0.041280583 -0.03347177 -0.050757706 -0.071064144 0.013950725
-0.0020606192 0.038110916 0.101988025 0.06941011 0.046528492 -0.029223716 0.027546166 -0.014896967
0.06843828 -0.02935179 -0.047441352 -0.067027815 -0.07245004 0.09140027 0.002788184 0.0014345484
0.06798118 -0.027004622 0.015283519 0.032870602 0.08248178 -0.017572027 -0.07030265 0.06686084
